CNN-Lite.tflite (tflite, 10080 bytes, 5 tensors)

arith.constant f4 [16]
00000000: 3fc2 47c0 e807 e5bf 5248 71c0 a09a 41c0
00000010: 654b a0c0 725e 29bf c894 6ac0 587b 82be
00000020: edd9 b0be 7a9d 96bf 209d 0cbf f341 0a3e
00000030: f9db a5bf 84dd 70c0 3f7f 05c0 7d9f 4bc0
-3.1212308 -1.7893038 -3.770039 -3.0250626 -5.0092034 -0.6615974 -3.665331 -0.2548473
-0.34541264 -1.1766808 -0.54927254 0.1350172 -1.2957755 -3.7635202 -2.0858915 -3.1816094

arith.constant2 f4 [16, 1, 3, 1]
00000000: 079e 65be 9328 16be c489 4240 d72b d4bf
00000010: 9915 813f 8ae9 513d c232 bfbe 3097 a73f
00000020: bdd9 0c40 a460 d2be 1c61 5740 6785 25bd
00000030: e8ac cfbe f210 99bd b3f8 2140 f4b0 afbc
00000040: 91b5 cf3c 4c06 d1bd 5318 6c3f e658 c5bf
00000050: 7d06 153f af97 3c3c 221a 1bba f082 71bd
00000060: 2e36 c6bc c308 c0bc 48a4 89bd 3e62 d23f
00000070: faa3 8dbf 0f7c 533d bec4 053f 3567 7fbd
00000080: 0e23 2d3f f979 92bf ddc7 733f 1f7d 64be
00000090: b2af 0140 ce52 b43d 7996 143e 9493 b2be
000000a0: 7b49 1f40 032f 5bbf 8fed 2ebe 969c 36c0
000000b0: f179 4cbe 04c3 a9be 1830 1440 1b23 0c3e
-0.22423564 -0.14663915 3.0396585 -1.6575879 1.0084716 0.05124811 -0.37343413 1.3093014
2.2007897 -0.41089356 3.365302 -0.040410426 -0.40561604 -0.07473935 2.5308044 -0.021446683
0.025355132 -0.10206279 0.92224616 -1.5417755 0.58213025 0.011510774 -0.0005916675 -0.058962762
-0.024195757 -0.023441678 -0.06720787 1.6436231 -1.1065667 0.051631983 0.5225333 -0.062354285
0.67631614 -1.1443473 0.9522684 -0.22313355 2.0263486 0.08804856 0.14510526 -0.34878218
2.48886 -0.8561861 -0.17082809 -2.8533072 -0.19968392 -0.33156598 2.3154354 0.13685267

arith.constant3 f4 [1, 8]
00000000: f122 af3d 8124 e0bd a894 3c3e c0e3 9cbe
00000010: 16c6 c1bd 796c 42be f8bd babd bc87 1b3e
0.085515864 -0.109444626 0.18416083 -0.3064251 -0.0946161 -0.18986692 -0.09118265 0.15188497

arith.constant4 f4 [8, 192]
00000000: a932 b6bf 793d 6940 7f42 7ebf 1a00 93c0
00000010: 56ef 98be f823 013d 49fd 05c0 6e20 003e
00000020: e675 4abe 5540 4b40 a444 013f 5b04 35c0
00000030: f3a8 91bf b976 ac3f 7a77 29c0 a863 0c40
00000040: 23be 873f fc5e 0ebf c96e d53f 62de 0740
00000050: a698 10bf 712f 96be 17ad c83e 255c 1bbe
00000060: c52d d4be d2d8 77bf 9e5f 9dbd 0916 97bc
00000070: b049 39bf 6b95 843f 535f 013f 44ab e93d
00000080: b671 3c3f 495d a6bf df43 b73f c460 2740
00000090: 32ee 54c0 2ce3 113d 3ba0 bf3e c7fb b33d
000000a0: 9f04 fcbe 6a9b fc3f b313 373f ee6b 92be
000000b0: 2390 7a3f 0f43 57c0 d961 063c ff45 26c0
000000c0: 8f32 2dbe d617 60be eca2 a53e d0b9 4f3e
000000d0: a913 81bf 84db ed3d de6f 2640 ea57 9e3d
000000e0: c089 c1bd 6f73 573d d220 4e3f 6ab1 7ebe
000000f0: 752b 4240 b78d 7b3f f6e1 24be e73b be3e
00000100: 2413 2ebf 31f2 a33d 037c 8f3e d4b5 023e
00000110: 5775 7ec0 ed5d ec3d 4d93 2f3e 36e6 853e
00000120: 3038 0b3f f814 443e be91 afbe 024d 18be
00000130: b0d0 943c 8b0d 353c b4a8 8c40 6c2b a63e
00000140: 6d76 4dbf 2a41 153f 7d92 043e 310b 7a3f
00000150: 08d0 8c3e a0fa d6bd 0356 a9bf 2793 efbb
00000160: 1c32 c83d 9365 bd3e 652c 2d3f c899 31bf
00000170: 9a6c 5ebd 442e 9f3e 92d2 9dbe dd3d 2740
00000180: 8903 4fbf 993f 14bf aad9 043f 6701 883f
00000190: bb15 1cbf 289b 9c3e 615a 78be 4c52 bfbd
000001a0: 40c2 893b 1cd9 41bc 933a 2ebf 562f 363e
000001b0: 99e9 f53d 7402 0140 015f b0be 941d ac3e
000001c0: 4613 a1bf 9d5e 82bf da49 0a3f ec28 863f
000001d0: 47e3 b93e 55a3 f8be cebb 8b3f 4af6 4f3c
000001e0: e85d b93e d872 5ebf ff4d 293f d2c6 5a3f
000001f0: ba20 5f3e 6ccf 9ebe fe1a 443e 17cc d53e
00000200: 8b24 1e40 3528 63bf 1653 903f da78 373f
00000210: 3650 75c0 3ebf 9cbe 1858 953f c072 cc3d
00000220: 97a3 043e 6175 ffbe 5160 9bbe c0f4 253f
00000230: 0f58 97be 2805 02be 9022 06be 65f2 483f
00000240: 345e 903e 36f4 a4bd a255 24be 145f 16bf
00000250: f4c1 3dbc b511 2a3e 2d16 f63e 0b96 203e
00000260: 509d 8d3e cb99 c9bd 6358 88be f8a4 f1bc
00000270: 4fa1 edbf 3709 4d3e 03c7 b9bd d8a4 653e
00000280: 8d84 2440 9e50 be3e a561 fa3e df12 30bf
00000290: 1c77 ab3e 0465 1dbe e295 cbbe 4b9d 8a3c
000002a0: ef0d ebba b802 6dbe 2d6b 5d3e 2d62 1a3d
000002b0: e1e9 ff3e ddbf 95bd 2a32 59be 20e6 09bd
000002c0: 4baa 0cbe 2ed4 c0be 47ac e9be fcf2 3b3f
000002d0: 70cb bc3f 71be f63e 55d6 0640 34e2 4b3d
000002e0: 8501 243e eb41 99be fe3f 85be 87aa 253e
000002f0: 8243 0d40 04fd 53bd d194 ba3e 5fd6 053f
00000300: 1472 72bf 7a96 273f ee9e 97be ee97 2fbf
00000310: 9160 0bbe e5b8 313d 3494 0ec0 565b 92be
00000320: dba3 75be 15ec d2be 06ef 3dbf 0e33 e9bf
00000330: 4906 88be 654f 533f 8217 04bf 0886 b4be
00000340: 3efb 76bd b6da e33e 875c 05be 3a13 d53e
00000350: 1bf5 99be 4478 1fbf 5045 d33d 18c5 923d
00000360: e45a 42be 1cd9 2fbf 2f03 e1be 3c54 99be
00000370: 38a5 a9be 0dca 42bf 7a20 083f 9931 0abf
00000380: 7176 69be 7fd4 70bd 1b6e 663f 4081 793e
00000390: 7d53 a43d 5275 c1be a967 50bf f164 6d3d
000003a0: cd6d 55bf 4b3c c8be 24a7 f9be ac25 9bbf
000003b0: af73 cfbc 43bf 58bf 20e9 3abd 92e3 abbd
000003c0: 6f73 d23e 0a95 c3bd fcb2 0e3f cfcb d83e
000003d0: 741e 623f e2db 98be 8e33 16bf 14a5 0ebe
000003e0: 8f0c 04bf ae38 15bf d159 52bf 7c90 9cbf
000003f0: 162a 77bd 2b50 293f c1bf a4bf 5c14 56be
-1.423421 3.644377 -0.99320215 -4.5937624 -0.298701 0.031528443 -2.0935843 0.12512371
-0.19771537 3.1758015 0.5049536 -2.8283908 -1.1379684 1.3473731 -2.6479173 2.1935825
1.06049 -0.55613685 1.6674434 2.1229482 -0.56482923 -0.2933307 0.39194557 -0.15171869
-0.4144117 -0.96815217 -0.07684253 -0.018443124 -0.72378063 1.0358099 0.5053608 0.114096195
0.7361101 -1.2997218 1.4317588 2.615281 -3.3270383 0.03561704 0.37426934 0.08788257
-0.49222276 1.9734929 0.71514434 -0.2859797 0.97876185 -3.363468 0.00820204 -2.5980222
-0.16913818 -0.21884093 0.32350862 0.20285726 -1.0084125 0.11614135 2.6005778 0.07731612
-0.09450102 0.05260032 0.8051883 -0.24872366 3.0339024 0.98263115 -0.16101822 0.37155077
-0.67997956 0.08005179 0.280243 0.12764674 -3.9759119 0.115413524 0.17146035 0.261522
0.5438261 0.19148624 -0.3429088 -0.14873126 0.018165916 0.011050592 4.3955936 0.32455003
-0.8025883 0.5830256 0.12946506 0.97673327 0.27502465 -0.10497022 -1.3229374 -0.007311243
0.097751826 0.36991557 0.67645866 -0.69375277 -0.05430279 0.31089985 -0.30824715 2.6131508
-0.8086477 -0.5790954 0.5189463 1.0625428 -0.6097066 0.30587125 -0.24253227 -0.09341869
0.0042040646 -0.011831548 -0.6805813 0.17791495 0.12007446 2.0157747 -0.34447482 0.33616316
-1.2584007 -1.0185124 0.5401894 1.0481238 0.3630621 -0.48562112 1.0916688 0.012692997
0.36204457 -0.8689399 0.6613464 0.85459626 0.21789828 -0.31017625 0.19150922 0.4175727
2.4709804 -0.88733226 1.1275356 0.7166878 -3.8330207 -0.30614656 1.1667509 0.09982824
0.1295303 -0.4989424 -0.3034692 0.64826584 -0.2955937 -0.1269728 -0.13099122 0.78494865
0.2819687 -0.08054392 -0.16048291 -0.5873883 -0.011581887 0.16608317 0.48063794 0.15682237
0.27659082 -0.09843787 -0.26629934 -0.029497609 -1.8564852 0.20023046 -0.090711616 0.22426164
2.5705903 0.3717088 0.48902622 -0.68778795 0.3348931 -0.15370566 -0.3976279 0.016920706
-0.001793323 -0.23145568 0.21622916 0.037691284 0.49983123 -0.07311986 -0.21210542 -0.03366673
-0.13736837 -0.3766188 -0.4563925 0.7341764 1.4749584 0.4819217 2.1068318 0.04977627
0.16016205 -0.29933104 -0.26025385 0.16178332 2.2072453 -0.051754966 0.36441663 0.5228023
-0.9470532 0.65463984 -0.2961344 -0.685912 -0.13611056 0.04338922 -2.2277956 -0.2858531
-0.23988287 -0.4119574 -0.74192846 -1.8218706 -0.26567295 0.8254302 -0.5159837 -0.35258508
-0.060298197 0.445028 -0.13023578 0.4161623 -0.30069813 -0.62292886 0.10315955 0.07166499
-0.18979985 -0.6869066 -0.4394774 -0.29947078 -0.33133864 -0.76089555 0.53174555 -0.5398193
-0.22799088 -0.058796402 0.9001176 0.24365711 0.080237366 -0.3778482 -0.8140817 0.057957593
-0.8337067 -0.391085 -0.4876033 -1.2120872 -0.025323717 -0.8466684 -0.04563248 -0.08393015
0.41103694 -0.09549911 0.5574186 0.42342994 0.8832772 -0.29855257 -0.58672416 -0.1393016
-0.5158166 -0.5828961 -0.821683 -1.2231593 -0.06034287 0.6613795 -1.2871019 -0.20906204

arith.constant6 f4 [8]
00000000: ff76 47c0 0551 a4bf 37f6 4fbe 6b3a 0140
00000010: 5bd0 3abf ca4f 04be 6519 9a3f 68fd 58c1
-3.116638 -1.2837225 -0.20308767 2.0191905 -0.72974175 -0.12921062 1.2039 -13.561867
