cnn_model.pt (torch, 19449 bytes, 5 tensors)

weight f4 [16, 1, 3]
00000000: f035 2fbd 4aa5 213f 078d d8be c8a5 2d3f
00000010: ff82 cdbe 6b65 dc3d a179 5c3e de4e 083e
00000020: f154 d63e 5f58 2dbf 4fe5 f0be 02a5 cabe
00000030: 9f4a ae3d 5ca8 a7be 6117 0bbf 96cd 3d3f
00000040: ffaf c03e 391e 31be a74c dcbe 2524 543f
00000050: 210d 9dbe 279d a3bb e163 623d 5b49 59bf
00000060: fb40 e5be e742 9abe 4af5 c8be a673 20be
00000070: f5f2 423d 9a53 03bf 90fd 6dbc 693e e3bd
00000080: 5748 bebd fde3 0ebd 0e20 49be 37ff b63e
00000090: 6f49 6b3e 6eb9 8bbd d574 60bf 8d66 c53e
000000a0: 97d8 453f 4743 8f3e ea2e 9fbd 328e 0bbd
000000b0: f89f ab3e fff0 c6be 09cd 3fbf accf b23e
-0.04277605 0.63142836 -0.42295095 0.6783109 -0.40139005 0.107615314 0.21530773 0.13311335
0.4186168 -0.6771297 -0.4704995 -0.39579016 0.085103266 -0.32745636 -0.5433255 0.74141824
0.37634274 -0.17296685 -0.4302723 0.8286765 -0.3067408 -0.0049930993 0.055271033 -0.84877557
-0.4477614 -0.30129167 -0.3924964 -0.15669116 0.047594983 -0.5129944 -0.014525786 -0.11095888
-0.092911415 -0.034885395 -0.19641134 0.35741588 0.22977231 -0.06822477 -0.8767827 0.38554803
0.77283615 0.27981016 -0.0777262 -0.034071155 0.33520484 -0.3885574 -0.74922234 0.34924066

bias f4 [16]
00000000: 6ea1 783e a4c8 a7be efd2 e8be 9c4e 3b3e
00000010: bfa1 fe3e c798 17be f733 b0be 469b 1a3e
00000020: e3a1 c4bd dc5e 013f c6b8 9a3e d5cf 153f
00000030: e239 b3be 3d7b afbe 0acb 833e 4a72 ff3e
0.2428033 -0.32770264 -0.4547343 0.18291706 0.49732777 -0.14804374 -0.34414646 0.15098295
-0.0960119 0.5053537 0.30219096 0.5852025 -0.350051 -0.3427371 0.25740844 0.49891883

weight f4 [8, 208]
00000000: 03d0 31bd d063 7abd 2015 6f3e abfb 8e3e
00000010: 3701 903d 12b9 31bd 89a3 63bd 92b9 51bd
00000020: 1200 79bd b02e 0d3d 254d 1b3e 863b 693e
00000030: fce4 16bd 9c5c 093f 4a77 1b3e 2f50 9bbd
00000040: 3147 693d dede 3cbb 289e 473e d6d3 0f3e
00000050: 9c2f 2c3e b581 5e3e 3956 443e f786 48bc
00000060: 7f8f 39bc b8f8 9e3e 1075 ef3e d851 9e3c
00000070: d544 ea3d c01e db3c c102 943e da49 a43e
00000080: e512 46bd d31a 553e 331d 9f3e b98f 603e
00000090: 9a63 80bd 7baa ba3e bd9b a63e f38f 8ebd
000000a0: 26a1 253b 06a2 03be 6d5d f9bd a2b9 113e
000000b0: b30a a93d 157a 013d 43b2 8d3d e86e 173e
000000c0: d2f9 9e3d 5247 503c 38b5 8bbd ac07 8b3d
000000d0: 0636 263d 60f0 503d 667d a2bd 1d6a e4bd
000000e0: 1b3c f33d 5e09 e43c 0c23 afbc 1973 a53b
000000f0: 32ef 223d 0468 f83d 60ae eb3c 05bb b7bd
00000100: 0872 cc3c b10a 183e 6c6f f3bd 28c1 653e
00000110: a368 2a3e 3b5d 023e 6c1a c73d 3b62 13bd
00000120: 1ece afbd e333 593d 7ec4 003e ebe4 a93d
00000130: 278b d53d 13b7 00bd 4528 edbc dca9 6b3d
00000140: 1954 2c3e fd43 7b3e 80fd 243e 5d4c 653d
00000150: 5603 9abc b908 d63c 9294 443c 5bd6 313e
00000160: f1b7 b93d 0553 403e 6f42 eebd e462 e03d
00000170: 1092 383c 4fe8 cf3d 06bb ac3c 6af8 603e
00000180: 191e 3abd 2fb3 de3d c526 59bd abe1 5f3d
00000190: 10c3 b63c 4c72 033e 275f 0ebd 3cb9 c7bd
000001a0: 225f fcbc 5f29 3c3d c9e5 77bd 35da 5fbd
000001b0: ef37 343e 9852 b73d c474 e0bb 2232 c73d
000001c0: 2ce7 ab3d 88d9 a23d 5ee1 8c3d d658 a43c
000001d0: fee3 32be 8de7 623c b5aa 943d 4569 1f3d
000001e0: b0f7 41bd efb2 073e d9d3 e73a eb24 fe3c
000001f0: 3571 0b3d aba9 8d3d 2464 f7bc 0eb8 b33d
00000200: ea7a aabd eada 85bc 370d d33c be19 993d
00000210: 4c58 e6bc aa7e 493b 04fc e53d f47b 7e3c
00000220: ab4c 5c3d befe 093c 9631 163d 96f2 8a3d
00000230: 2218 7b3d 918c d1bd 7c8d a63d 10e5 35bd
00000240: afd7 163e ba53 32bd 0d1c 1abd 3a3c afbc
00000250: 2b6d d53d 8a1e 973d 3852 653d ff89 673d
00000260: adec 91bd a805 04be 471c 4bbb a108 a4bd
00000270: 303e 233d e900 2f3e cdad a23e 8781 843d
00000280: b4bf 9d3e 9086 2a3e 32b5 723d 31ae 1f3e
00000290: 9990 cb3d befa 273e 4776 323e 15dd c53d
000002a0: 1440 053e 2f5f a63d 48b2 b0bd 77cd 963e
000002b0: a25b 843e 2383 653d 47c6 d13d 6d40 c6bc
000002c0: 9061 5cbd b1d1 70bd 4c0c dd3d ca46 a7bc
000002d0: 0403 9a3e f38e ff3c 5922 32bd 0d2e 8b3d
000002e0: e7d7 15bd 9664 d4bc d8b3 efbc 79bf 7c3d
000002f0: de6d 17bc 9f02 4b3d bc20 6b3d 5a71 c3bd
00000300: 89fc b3bd e5f3 823d 2080 05bb a091 b6bd
00000310: e06c 203d 09b4 26be 2785 27bd 8043 ab3b
00000320: dd81 403e 452a b83d 3844 4f3d cf4c 2b3d
00000330: bc76 24bd 7a4c ffba 03cd 383d 1695 263e
00000340: 05b5 4dbd 556c a7bd 1d26 493e 5ec3 5e3e
00000350: 5260 863d 01f0 4ebb 05b8 81bc d4eb 00be
00000360: 725e a6bd 7fe7 0a3d 1298 a73d 6d4c 183e
00000370: 59e9 b5bd 12e3 003f c3e6 5c3e f6f5 2dbe
00000380: e0d7 87bd c63f f0bd 535b 563e a05a e73d
00000390: f67f 973e 13be 1d3e 8800 fc3d 85ea c4bd
000003a0: 3b04 183d e412 9e3e b4b2 d23e c450 6c3c
000003b0: ca07 e53d 6ed9 913b de81 683e 936e a63e
000003c0: 745f 92ba c6ea 8c3e aced a73e 74b6 3d3e
000003d0: eb84 12be 5389 da3e d38e d63e 06c2 05bd
000003e0: 137a 403d 57e2 0abd 607e b03c 251e 103e
000003f0: aa70 363e 2f4a 91bd ce98 d83c 87cd c73d
-0.043411266 -0.061130345 0.23347902 0.27926382 0.07031482 -0.043389387 -0.05557588 -0.051202364
-0.060791083 0.034468353 0.15166147 0.22776613 -0.03683947 0.53656936 0.15182224 -0.07583653
0.05695266 -0.0028819363 0.19493926 0.14045653 0.16815037 0.21729167 0.19173516 -0.012239209
-0.011325716 0.31049132 0.46769 0.019326136 0.1143891 0.026748061 0.2890835 0.32087594
-0.048357863 0.20811014 0.31076965 0.21929826 -0.062689975 0.3645819 0.32540694 -0.0696105
0.0025273054 -0.12854776 -0.12176023 0.1423097 0.08253994 0.031610567 0.06918766 0.14788401
0.07762493 0.012712317 -0.06821674 0.06788573 0.040578865 0.05101049 -0.07934074 -0.11153052
0.118766986 0.027836498 -0.021379016 0.005049121 0.039778896 0.121292144 0.028769672 -0.08971218
0.024956718 0.14847828 -0.118864864 0.22436965 0.16641478 0.12730877 0.097218364 -0.03598235
-0.085842356 0.053028 0.12574956 0.08295616 0.10426932 -0.031424593 -0.028949866 0.057535037
0.16828956 0.24537654 0.16112328 0.05598103 -0.018800419 0.026127206 0.011998313 0.17366926
0.09068287 0.1878167 -0.11633765 0.10956362 0.011265293 0.10151731 0.021085273 0.21969762
-0.04543886 0.1087402 -0.05301549 0.054658573 0.02230981 0.1283657 -0.034758713 -0.097521275
-0.030807082 0.045937892 -0.060521875 -0.054651458 0.17599462 0.089513004 -0.006849857 0.09726359
0.08393702 0.07951647 0.06878923 0.020061892 -0.17469785 0.013849151 0.07259122 0.038918752
-0.047355354 0.13251851 0.0017687037 0.031023463 0.03404351 0.06917127 -0.030199118 0.0877534
-0.08324225 -0.016339738 0.025763137 0.07475613 -0.028118275 0.0030745664 0.11229709 0.015532482
0.053784054 0.008422552 0.036668383 0.06784551 0.06130231 -0.10231889 0.08132455 -0.044407904
0.14730714 -0.04353688 -0.037624408 -0.021391023 0.10421213 0.07378872 0.055986613 0.056528088
-0.071252204 -0.12892783 -0.0030992196 -0.08009458 0.03985423 0.17090191 0.31773224 0.06470018
0.3081032 0.16652894 0.059254833 0.15593792 0.09939689 0.16404244 0.17427932 0.09661309
0.13012725 0.081236236 -0.086277544 0.29453632 0.2585116 0.056033265 0.102428965 -0.024200642
-0.05380398 -0.058793727 0.10793361 -0.020419497 0.30080426 0.031196093 -0.043489788 0.06795893
-0.036582854 -0.02592687 -0.02926056 0.06170604 -0.009242503 0.049563047 0.057404265 -0.095431045
-0.08788402 0.063941754 -0.0020370558 -0.089144945 0.03916633 -0.16279615 -0.04089847 0.0052265525
0.18799539 0.08992437 0.050602168 0.041821297 -0.040152296 -0.0019477748 0.04511739 0.1626781
-0.05022146 -0.081749596 0.19643445 0.21754214 0.065613404 -0.003157616 -0.015834818 -0.12589961
-0.08123483 0.033912178 0.08183302 0.14872904 -0.08882398 0.5034648 0.21572404 -0.16988358
-0.06632972 -0.11730914 0.20933275 0.11296582 0.29589814 0.15404539 0.12304789 -0.096150436
0.03711341 0.30873787 0.41151965 0.014423553 0.11183126 0.0044509685 0.2270579 0.32506236
-0.0011167363 0.27522868 0.32798517 0.18526632 -0.14308517 0.42682895 0.4190584 -0.03265574
0.04699142 -0.03390726 0.021544635 0.14073999 0.17816415 -0.070942275 0.02644005 0.09755998

bias f4 [8]
00000000: bb82 27bc 3189 dcbd 0258 203e 8ab0 c1ba
00000010: 7a5d 19bd 175b 1cbc 866c 363e 7593 d33d
-0.01022404 -0.10768355 0.15658572 -0.0014777344 -0.03744266 -0.009543202 0.17814836 0.103308596

weight f4 [1, 8]
00000000: f6b9 993e c22a a73e 253e aebe 7d34 fc3d
00000010: 2476 d73d c01b 083e 1f37 37be 16f7 4fbe
0.3002469 0.3264981 -0.34031788 0.12314699 0.105205804 0.13291836 -0.17892121 -0.203091
