GRU-Lite.tflite (tflite, 10080 bytes, 7 tensors)

arith.constant f4 [64]
00000000: 00d7 56bd 0a61 d1be 879e a7bf fceb 53bf
00000010: b9d8 aabe 6fb8 9f3e fd25 1ebf 426f 07bf
00000020: cf9d 05bf 1ad8 44bf a0d3 5dbf c0f3 a4bf
00000030: 672e a1bf 16c2 d4bd 1955 48bf f453 2b3d
00000040: 4010 b4be 629c 37bf 2f96 943e f657 aabf
00000050: 3431 61be db8d 4fbf f8d4 8fbe 0b37 15bf
00000060: cd43 94bf aa6b 87bf 5b49 41bf 3265 16bf
00000070: 1732 573e c743 38be 2633 003e 8071 fdbd
00000080: 23a3 f8be 595d adbe 95ad bbbe b10c d0bf
00000090: 5d66 2abf be62 3abf 82b0 75bf 29b4 27bf
000000a0: 2d75 133f f127 3ebf 3bba cfbe b14a 9bbe
000000b0: d7e5 9dbe c32d 9b3e 910d 053f faae 43bf
000000c0: c715 12be 9acb 05bd 7246 093f 66d4 68be
000000d0: 4425 2dbf 7ee9 d63e 91a7 24bf a324 9bbc
000000e0: e690 4dbf 049c 833d 80d4 bebf a89b 393d
000000f0: 5e71 07bf b8eb 1cbf d4f7 40bf a5d5 a8bf
-0.052451134 -0.40894347 -1.3095254 -0.8278196 -0.3336847 0.311954 -0.61776716 -0.5290414
-0.5219392 -0.76892245 -0.8665104 -1.2886887 -1.2592286 -0.103885815 -0.7825485 0.04182811
-0.35168648 -0.71722996 0.2902083 -1.3308094 -0.21991426 -0.8107583 -0.2809217 -0.58287114
-1.1583191 -1.0579731 -0.75502557 -0.5874816 0.21015202 -0.17994605 0.12519512 -0.12375164
-0.48561963 -0.3386028 -0.3665587 -1.6253873 -0.66562444 -0.7280692 -0.95972455 -0.6550928
0.5760067 -0.74279696 -0.4057177 -0.30330423 -0.30839416 0.3030835 0.51973826 -0.7643887
-0.1426612 -0.032664873 0.53623116 -0.22737274 -0.6763499 0.41975015 -0.64318186 -0.018938368
-0.8029922 0.06426242 -1.49086 0.04531446 -0.5290736 -0.6129718 -0.75378156 -1.3190199

arith.constant1 f4 [16]
00000000: 8736 9d3e f125 933e a872 103f b38b 713f
00000010: 5695 1a3d 7762 8abd 426a b5bf b1cc 063f
00000020: a39b e9bc 1e66 04bf 7445 1c3e d676 3b3f
00000030: 5e06 5a3f 9da4 953e 6b5b ac3c 77a1 d53d
0.30705664 0.28739884 0.5642495 0.9435379 0.037740074 -0.06757062 -1.4173052 0.52656084
-0.028516596 -0.5171832 0.1526087 0.73228204 0.85165966 0.29227152 0.021039685 0.104311876

arith.constant3 f4 [16, 32]
00000000: f791 89bd 8a4d 193f be10 493e 1493 f5bd
00000010: fcad 92be 1bab 013e 43a6 df3d 8bc8 abbd
00000020: 31c9 c4be 06f5 b43d 74b2 f93d 946e 1d3e
00000030: c3a9 51be f81c f7bd 6677 2b3e a101 c9be
00000040: 6687 6c3e 0051 893d f597 733e de24 ca3e
00000050: fd9d cebe e9f6 6fbd 64d2 2d3e 4c53 9d3d
00000060: aba1 81bf 48ca d3be 33ca 2fbe e94b 963e
00000070: 92f8 bcbd 6bc5 5ebe a6fe cabd 4a9e e8bc
00000080: 7f6c ddbe 97fe 5dbe b81e 5cbe 9fc2 243f
00000090: 56d4 96bf cc88 5c3e 59c8 35be 30cc 293f
000000a0: 75ef 23bf 1fb5 23be 6604 803e 1177 3fbe
000000b0: 5373 f9be e24d d9be f580 9b3e 1ad8 c8be
000000c0: 64c0 b2bd 9eb2 e03e 0b50 293e a813 063f
000000d0: 9432 c83c 2e3a 6dbe 86d8 2fbc a055 7f3d
000000e0: 2ef7 be3e 52f9 83be 35fd 04bf cd18 de3e
000000f0: 1c0d f7be 033b 043e d3cb 5bbc d157 37bf
00000100: f255 12bc b7a0 8dbc d66b 803d c178 49bd
00000110: f9e8 433e 9346 27be 3ed9 b2be 0225 4d3d
00000120: 0827 ed3e 3182 d1bd 8b07 1fbe bada 44bd
00000130: d204 42be 1759 31bf 5400 89be 814b 6bbd
00000140: 3871 2abf 6a82 ddbe db2c a9be bf29 c0be
00000150: 8aac 7bbd 7e50 9fbb f9e7 1cbf cbf6 b2be
00000160: 8d7e 813e ea7d fdbc 8134 2ebd dc40 013f
00000170: bd66 c83d 9169 53be ba94 f9bc 3799 b3be
00000180: ec5e 8fbc 559f a23d dcbc 4b3e 7765 a53d
00000190: aa39 4fbe ce05 a73d b65b af3d d5b4 6bbd
000001a0: 4aaa b6be 209d 513e 5f49 343e 81b9 50be
000001b0: afb1 6bbd df07 69be 332a 3a3e 9ff3 6cbe
000001c0: 3189 e23e 2e77 2abc 71c2 583d 5202 753e
000001d0: d7ad 703e 686d d53d 40bb bb3e fdeb 8c3e
000001e0: 0e35 793e 387a 20bd 9379 0abd 4829 313f
000001f0: e89a 21be 4c47 c93d 6336 793d 0c59 933e
00000200: 956a 8cbd 747e f5be 20a7 963e 1188 33bd
00000210: 1032 dcbd fb20 00bf ae49 04bf b478 88bd
00000220: f507 a7be b590 c2be 575e 21bf e392 4a3d
00000230: 4e69 083d f2ed db3e 912f 113d a1b5 28be
00000240: 0c98 96be 684d d7be f8ff 14bf 727b 553e
00000250: 83af e23b 256d a6be 1e2e b0be 93e6 58bf
00000260: d559 46bf 42ee 8fbd 8201 d2be d0a0 1fbe
00000270: 17f4 993d 40d6 d3be 79b4 aebe 0ebb 3ebf
00000280: c916 9bbe 49b8 973d 9553 9ebd f3c5 70be
00000290: 25e7 12be 9dc2 9dbe b3ee 5ebe 6ec8 003f
000002a0: 931d 2abd 8366 c1be 627f 0cbf bee6 91be
000002b0: f45a 0cbf 04d5 1f39 b957 fd3d 5ff1 c0be
000002c0: 7363 883e 6e27 11be 6a6b 04bf 5a7e 44be
000002d0: bd7a d9be 6ff2 fdbe 3cf9 a9bc 0103 88be
000002e0: 4228 66be ba49 1dbf 37e6 17bf 3109 9b3e
000002f0: b042 ac3b d359 2abf c256 403d ea7f f3ba
00000300: bd1e dbbd 0bce db3c 6d30 e93d 9212 0e3e
00000310: c090 56be cff0 973d 6917 4dbe 2f4d 573d
00000320: 2218 b3be 2c20 85bc a13e 1fbd e9de 673e
00000330: 0c1f a8bd be3e 65be 025a 383e 89bf fe3d
00000340: c43a d23e dbb1 0fbf 236f a0bf 30ab 983e
00000350: 37b4 653e 1982 c8bb 8266 c23e c50b 2dbf
00000360: 09fc 0e3d db0c ee3b 9c2f 3d3d 4383 c03e
00000370: 2425 0e3e 26f2 633d e026 303c 94a1 32be
00000380: 81ec 56bf 19ec fa3d 3040 44bf e909 2c3f
00000390: 2283 09bf 751d ad3d deed 9abe 06c1 8d3f
000003a0: 3ab9 8bbf 9fd1 50be 11e6 0b3e d8fb 51be
000003b0: 67a5 3dbf 2f9b 98bf 554e 973e 8d15 35bf
000003c0: 3f22 b63c b44f 16be 3e77 373e 6c98 82bc
000003d0: 4b4e e5be d91e 8439 db39 a53d d86a 0c3d
000003e0: 9950 063e e22b 29bf d6d9 c1be a4b9 4b3f
000003f0: 4794 23bf 0401 18be e649 abbc ba1d 7e3e
-0.06717294 0.5988394 0.19635293 -0.119909436 -0.28648365 0.12662928 0.10920384 -0.0838786
-0.38434747 0.08835797 0.1219224 0.15374213 -0.20474915 -0.12066072 0.16744766 -0.39259055
0.23098525 0.06704903 0.23788436 0.39481252 -0.4035491 -0.05858508 0.16974789 0.07681903
-1.0127462 -0.41365266 -0.17166977 0.2935479 -0.092270985 -0.21754996 -0.099118516 -0.02839579
-0.43246838 -0.2167915 -0.21496093 0.6435947 -1.178355 0.21536559 -0.17752208 0.6632719
-0.6403726 -0.15987061 0.25003356 -0.18697764 -0.48720798 -0.42442232 0.30371824 -0.39227372
-0.08728102 0.43886274 0.1653444 0.52373743 0.02443818 -0.23166725 -0.010732776 0.062337518
0.37297958 -0.25776154 -0.51948863 0.43378296 -0.4825219 0.12913136 -0.013415295 -0.7161837
-0.008931624 -0.017288549 0.06270568 -0.049187426 0.19131841 -0.16335516 -0.34931368 0.05008412
0.4631884 -0.1022991 -0.15530221 -0.048060156 -0.18947151 -0.69276565 -0.26758063 -0.057445053
-0.6657901 -0.4326356 -0.33042035 -0.3753185 -0.061443843 -0.0048618903 -0.6129146 -0.34953913
0.25291863 -0.03094383 -0.04253054 0.5048959 0.09785221 -0.20645739 -0.030466426 -0.3507783
-0.017501317 0.079405464 0.19896263 0.080759935 -0.20236841 0.08155404 0.08562414 -0.0575455
-0.35676795 0.20470095 0.17606114 -0.20383264 -0.0575425 -0.22756909 0.1818016 -0.23139809
0.44245294 -0.010404391 0.05291981 0.23926666 0.23503815 0.10421258 0.36666298 0.27523795
0.24336645 -0.039179057 -0.03380735 0.69203615 -0.15781748 0.09828052 0.060842883 0.28778875
-0.068562664 -0.4794804 0.2942438 -0.043830935 -0.10751736 -0.50050324 -0.51674926 -0.06663647
-0.32623258 -0.38001028 -0.63034576 0.04945649 0.03330355 0.42954975 0.035445753 -0.16475536
-0.29412878 -0.42051244 -0.5820308 0.20847872 0.0069178953 -0.32505146 -0.34410185 -0.8472683
-0.7748082 -0.07027866 -0.41016775 -0.15588689 0.075172596 -0.41374397 -0.34122065 -0.7450417
-0.3029082 0.074081965 -0.07730786 -0.23513012 -0.14345987 -0.3081254 -0.21770744 0.5030583
-0.04153211 -0.37773523 -0.5488187 -0.28496355 -0.54826283 0.00015242776 0.123702474 -0.37684152
0.26638374 -0.14175197 -0.517264 -0.19188824 -0.42476454 -0.49599025 -0.020748727 -0.26564792
-0.22476295 -0.6144062 -0.59335655 0.3028045 0.005256973 -0.6654331 0.04695774 -0.001857755
-0.10699222 0.026831647 0.113861896 0.13874272 -0.20953655 0.074189775 -0.20028462 0.052563842
-0.3497935 -0.016250692 -0.038878087 0.22643627 -0.08209047 -0.22387215 0.18003085 0.12438876
0.4106046 -0.5613076 -1.2533916 0.29818106 0.22432028 -0.0061190245 0.37968832 -0.67596084
0.03490833 0.007264716 0.046187982 0.37600145 0.13881356 0.055650853 0.010751456 -0.1744445
-0.83954626 0.12252063 -0.7666044 0.6720262 -0.5371572 0.08452884 -0.30259603 1.1074531
-1.0915902 -0.20392464 0.13661982 -0.20506227 -0.7408051 -1.1922358 0.2955195 -0.7073601
0.022233127 -0.14678842 0.17916581 -0.015941821 -0.44786295 0.00025199985 0.08067676 0.03428158
0.13116683 -0.66082585 -0.37861508 0.7958014 -0.6389813 -0.14844137 -0.020909261 0.24816027

arith.constant4 f4 [1, 16]
00000000: f441 aebd beec d1bd 1d0b 0b3e 8ee4 87be
00000010: 261c 003d 667d fb3d 2f16 8b3e 0dc8 18be
00000020: d74a debd 55c9 073e a6f8 06be 005a ee3d
00000030: 54dd d63d 4b35 b33d df54 1ebe bd42 7b3d
-0.08508673 -0.10250233 0.13578458 -0.2654156 0.031276844 0.12279777 0.27165362 -0.14920063
-0.10854118 0.13260396 -0.1318079 0.1163826 0.10491434 0.08750399 -0.15462063 0.061342943

arith.constant5 f4 [32]
00000000: e848 d7bc 12e3 85bf 79b7 99c0 9fd9 8dbf
00000010: b983 bcbf 29fd 033f 9bda f43d fdc0 01c0
00000020: 17b7 e7bf 6911 fcbf cd7b 933f 1e44 71bf
00000030: bb49 b9c0 fc50 b8bf b189 00bf 8c7c 52bf
00000040: 5cbf d5bf 00c5 b83b e44e 9c3f e014 03c0
00000050: e24f 8fc0 5fc5 80bf 0983 3ac0 4a84 c43f
00000060: 0f95 773e 7009 bebf 875c 80be f995 92bf
00000070: 3a04 4b3f 6d9e 14c0 de2c 3bbf 79c7 1940
-0.026279882 -1.0459921 -4.8036466 -1.1082038 -1.4727699 0.51558167 0.11955758 -2.027404
-1.810275 -1.9692813 1.1522156 -0.94244564 -5.7902503 -1.4399714 -0.502101 -0.82221293
-1.6699023 0.0056387186 1.2211576 -2.048149 -4.4785013 -1.0060233 -2.9142478 1.5352871
0.24177955 -1.484663 -0.25070593 -1.1452018 0.79303324 -2.3221695 -0.73115337 2.4027998

tfl.pseudo_qconst i1 [32, 64]
00000000: 01f8 4e38 fcd1 eb00 020f 18ae 6b10 f4fc
00000010: 101c ed26 10fc 0dcc 0b22 0806 f8cd 04f5
00000020: 00fe e83e 08eb 4309 cc00 01f9 11f4 eb1c
00000030: 080a 010d 2002 fceb 09f1 7f09 1017 1b0a
00000040: 0407 d4fd fc01 fcef 0d04 080c 0f08 ff01
00000050: f80d 01bf 0004 03fa f5f5 00f7 0802 0b00
00000060: f4fd fec3 07f7 0205 0108 f508 0500 f701
00000070: 0cfa 0204 fbfd fb05 fa04 8106 0404 0dca
00000080: f829 e9f5 f904 0a03 13fd 0cff 0c06 09f8
00000090: 0305 0000 0e04 06fb fc1e 0f13 0b00 0d06
000000a0: 05f1 fc7f 1b0a 111d ff15 0e15 0203 fe12
000000b0: 09fb faf4 18fe fa0a 0f09 2306 ff13 1310
000000c0: 0107 be06 fefe 00fe 0df0 0bd5 02fe 0103
000000d0: 0314 fecf 0deb 0100 d914 f0fd 0503 0302
000000e0: 09ff 048d f200 000a ff0e f6f1 fdfe 0117
000000f0: 03fb fdf9 09ff fc03 ed03 8104 f40b e9a8
1 -8 78 56 -4 -47 -21 0
2 15 24 -82 107 16 -12 -4
16 28 -19 38 16 -4 13 -52
11 34 8 6 -8 -51 4 -11
0 -2 -24 62 8 -21 67 9
-52 0 1 -7 17 -12 -21 28
8 10 1 13 32 2 -4 -21
9 -15 127 9 16 23 27 10
4 7 -44 -3 -4 1 -4 -17
13 4 8 12 15 8 -1 1
-8 13 1 -65 0 4 3 -6
-11 -11 0 -9 8 2 11 0
-12 -3 -2 -61 7 -9 2 5
1 8 -11 8 5 0 -9 1
12 -6 2 4 -5 -3 -5 5
-6 4 -127 6 4 4 13 -54
-8 41 -23 -11 -7 4 10 3
19 -3 12 -1 12 6 9 -8
3 5 0 0 14 4 6 -5
-4 30 15 19 11 0 13 6
5 -15 -4 127 27 10 17 29
-1 21 14 21 2 3 -2 18
9 -5 -6 -12 24 -2 -6 10
15 9 35 6 -1 19 19 16
1 7 -66 6 -2 -2 0 -2
13 -16 11 -43 2 -2 1 3
3 20 -2 -49 13 -21 1 0
-39 20 -16 -3 5 3 3 2
9 -1 4 -115 -14 0 0 10
-1 14 -10 -15 -3 -2 1 23
3 -5 -3 -7 9 -1 -4 3
-19 3 -127 4 -12 11 -23 -88

sequential_9_1/dense_27_1/MatMul i1 [64, 26]
00000000: b6d7 c3c9 eaeb fb81 093f 34ea 312b f9c6
00000010: 3651 e782 1be3 cfb9 aedf f704 04fe 81a6
00000020: 0595 0303 230a fb11 fb0b 0005 0106 fc06
00000030: 0196 fffe ff00 0302 ff01 7ffe 0001 0301
00000040: fd00 fe03 0000 00fe 01ff 0005 fffe faee
00000050: fcff 341d 481d 00fd 7f03 f209 0408 1905
00000060: 1303 edfd fe32 0607 0804 00fa 3f35 810b
00000070: fb11 11fb 02fc 1300 1aeb c70a faed f250
00000080: 01e2 cbc1 0811 81d2 e0f2 0f50 0bc6 f01e
00000090: 2fbb 29e2 f1ac f2c8 b0b0 080d e7ea ee0b
000000a0: 7a6b f673 0100 810a 0510 09e6 2cfe 140a
000000b0: 1ade ec32 00d7 2af7 fb23 2f2c cf13 08e4
000000c0: f40b 1e02 02f8 19d8 7f0f fcee f537 e9fd
000000d0: 0210 0cf5 8781 faa9 ef02 2e16 0e21 02f8
000000e0: f104 e607 0c01 f79d f80e fcf9 0301 0af9
000000f0: 1cfc f7f8 8101 fb03 05fb 0402 f8ff 02ff
-74 -41 -61 -55 -22 -21 -5 -127
9 63 52 -22 49 43 -7 -58
54 81 -25 -126 27 -29 -49 -71
-82 -33 -9 4 4 -2 -127 -90
5 -107 3 3 35 10 -5 17
-5 11 0 5 1 6 -4 6
1 -106 -1 -2 -1 0 3 2
-1 1 127 -2 0 1 3 1
-3 0 -2 3 0 0 0 -2
1 -1 0 5 -1 -2 -6 -18
-4 -1 52 29 72 29 0 -3
127 3 -14 9 4 8 25 5
19 3 -19 -3 -2 50 6 7
8 4 0 -6 63 53 -127 11
-5 17 17 -5 2 -4 19 0
26 -21 -57 10 -6 -19 -14 80
1 -30 -53 -63 8 17 -127 -46
-32 -14 15 80 11 -58 -16 30
47 -69 41 -30 -15 -84 -14 -56
-80 -80 8 13 -25 -22 -18 11
122 107 -10 115 1 0 -127 10
5 16 9 -26 44 -2 20 10
26 -34 -20 50 0 -41 42 -9
-5 35 47 44 -49 19 8 -28
-12 11 30 2 2 -8 25 -40
127 15 -4 -18 -11 55 -23 -3
2 16 12 -11 -121 -127 -6 -87
-17 2 46 22 14 33 2 -8
-15 4 -26 7 12 1 -9 -99
-8 14 -4 -7 3 1 10 -7
28 -4 -9 -8 -127 1 -5 3
5 -5 4 2 -8 -1 2 -1
