gru_model.pt (torch, 15487 bytes, 7 tensors)

weight_ih_l0 f4 [48, 1]
00000000: b544 e8be 9912 a33d cd79 60be 0628 e8bd
00000010: ba9c 22bf 3e0d 823d a693 7e3d 297c d0be
00000020: e550 5ebd de48 25bf 9af1 12bf 5c69 bdbe
00000030: 0db5 403e cc53 23bf 69f6 31bf 9b76 9a3e
00000040: 1830 6dbd 4092 13bf 7ea3 63bf 1480 43bd
00000050: 527d 54bf 324e 28bf d490 25bf cdd5 36bf
00000060: b15e 0fbe ef1e 20bf f281 42bf 864f 97be
00000070: 51e0 7abe b6c7 94be 0d12 16be 116a 4cbf
00000080: 638d 97be 33f9 94be e181 d2be b812 073c
00000090: 15f6 093f 6984 68be a826 bdbe 8835 73be
000000a0: bf57 a8be cb5a 52bd bb9f 143e 3e59 49bc
000000b0: 1806 f53e 9b60 c3be efad 723c c33b ca3e
-0.4536492 0.079625316 -0.21921463 -0.11335759 -0.63520396 0.06350182 0.062152527 -0.40719727
-0.054276366 -0.6456431 -0.57399905 -0.36994445 0.18819065 -0.6379974 -0.6951662 0.30168614
-0.057907194 -0.57645035 -0.88921344 -0.047729567 -0.83003724 -0.65744317 -0.64674115 -0.71419984
-0.14000966 -0.625472 -0.7597953 -0.2955286 -0.24499632 -0.29058617 -0.14655323 -0.79849344
-0.29600057 -0.29096374 -0.41114715 0.008244209 0.53891116 -0.2270676 -0.36943555 -0.2375089
-0.32879445 -0.05135612 0.14514057 -0.012289343 0.47856212 -0.38159642 0.014811977 0.3949872

weight_hh_l0 f4 [48, 16]
00000000: 121b 083f f9ec 7abe de23 37bf 689d 163f
00000010: ce63 2b3f ddbc b6be 84a4 41bf c631 41be
00000020: 9416 85be 8453 6c3e e9c1 043e 6c35 9738
00000030: 5961 b2be 0aca 26be da32 523e 2174 ed3e
00000040: f91b a83e 1261 563c 47bc 58be 9dd3 c23e
00000050: 0c19 4d3c 2cd5 29bf d9f2 c3be be87 efbc
00000060: 816c 13bf 5213 d73d 1b59 ea3d 2368 803d
00000070: 7fc3 823e a65f 5fbe 9a6d 45be 9b18 f83e
00000080: 1aef 903e 229f 21be 302f adbe 3cf2 36be
00000090: 5596 eabd 461e 09be 326e e13d 2f2c 18bd
000000a0: 3b34 cbbe eec9 743d 69ee fc3d 865d 6d3e
000000b0: 6101 d9be 3037 0fbe 7997 b53e 9d2c 5e3e
000000c0: e043 02bf 8dd7 cebe 63c5 b3be 0de3 053f
000000d0: bc34 143f 8b49 32bf 592a 24bf 9904 8ebd
000000e0: 7db5 e5be 031d 2bbe 467f fbbd 6563 3a3e
000000f0: 6fb0 f0bd f3a4 0ebe 17f6 853e d9f3 443f
00000100: 415a 503e d494 443d 1fc0 b5be 7c19 d83d
00000110: 1334 643d fd2c 05bf f79a bbbe 8871 c9be
00000120: 8c83 04be a3ab debd 3e48 a5be fe4d 1abe
00000130: 0852 bbbd 5aab 1bbe 1ca3 76bd 5351 923c
00000140: 1a8c bbbc 6055 d2bd c953 14bf d20e 963c
00000150: 4a9e 723d f819 e8be 50cf 25bf e79c 953e
00000160: e090 c8be f087 da3e f38e 48be 56fb d1bd
00000170: b481 77bb cd11 afbe 8fb7 e4bb 2e87 403f
00000180: 5ca6 c0be 5a76 d5be 52df c93c f432 60be
00000190: 92b3 073e f48d e43d fcee a53d ac46 843e
000001a0: 39c1 c3bd b6ee 7fbe 2f19 f2bd 76e5 843e
000001b0: 59d4 67be 4258 813c d67d de3d 3ebc bd3c
000001c0: 30b3 6dbe 2c96 8c3e e2d0 5b3b ddd5 11be
000001d0: b70e 9abe b263 1f3e 5e52 733c c924 1bbe
000001e0: 1dff c33d 6d3b 7fbe dcdb 0cbc 079a fdbd
000001f0: 7ed1 89bd c005 4ebd d5e0 f4bd de84 13be
00000200: 7033 db3e bd0f 12be eddf aabe 1cf9 ab3e
00000210: 00b4 e1bd 5ca4 8fbe 0da7 063e bfe1 4a3b
00000220: 8695 5fbe 8777 8f3e d90e cbbd afe5 84be
00000230: eb8e 3c3d 7c2d 34be 0802 febe 9126 fc3e
00000240: e904 88bc a3aa ac3e c3b3 da3e 12ba f4bd
00000250: 30ce 11be 23dc 283e 9e65 f73d 6b48 4cbe
00000260: bb26 cbbd 9a1d f63d b292 ccbe b18c edbd
00000270: c925 283e d332 bbbe 56a1 0bbd f2eb d3bd
00000280: c379 af3e 89fa 853e 7a2d 3bbd 1272 4bbc
00000290: 03b2 a83d 9ebf 913d 12fd cc3d 728d b83d
000002a0: 079b 77be d11a 80bd d918 b5be 9a65 d0be
000002b0: 8c87 943d 3f0f dfbe 839c 183d f638 3b3e
000002c0: 8a94 823e f945 103f 51f4 8a3d c27e 903d
000002d0: 9c3e 8dbe 2a90 b0bb 2a23 803e 4894 d6bd
000002e0: edfc 5ebe 6e15 403e e06a b9be f7ac 2c3d
000002f0: 22e1 6e3e d865 dbbc db6b 70be f9c4 703e
00000300: 9488 133f 4037 033e f935 73be 8679 8c3e
00000310: e113 c33d 2b44 87be d5eb 6ebe 641b 3abe
00000320: 655d 4dbe 1435 8b3d 8a3b adbe 774b c4be
00000330: b2a3 9ebd 7b57 cd3d 211f 6bbd 1510 14bd
00000340: 7b7e 233e 43a9 c0be 86c1 63be e30e 563e
00000350: e7c4 bf3e 8ae9 c2be a006 bfbe 013f 4fbe
00000360: ce77 e5bd ea87 28bd 8761 af3e 4255 933e
00000370: ed5c b5be 34d0 1a3f 87df ad3e d29d 1b3e
00000380: f90e 863e f8bf 083e fdde b33d 480f 9cbc
00000390: eb32 82bd d922 3e3e 84af 803e 7ef7 10be
000003a0: 612b 81be ab71 a63e 90a4 e0bd 1681 5fbe
000003b0: 6b9b 2d3e 9b07 90be dd15 96bd ce11 22bd
000003c0: 3d6f 1ebf 520e e1be fd2b c3be 8980 d0be
000003d0: 1220 023f f219 dcbe 0b1a dfbe 7b9b b1be
000003e0: 6744 f33c 3379 333d b5de 12be 9917 1c3e
000003f0: 392f 54bc 3745 82be 12cf 293d 3a05 e83e
0.53166306 -0.2450446 -0.71539104 0.5883393 0.66949165 -0.35690966 -0.75641656 -0.18866643
-0.25993788 0.23078734 0.12964596 7.210192e-05 -0.34839895 -0.1628801 0.20527211 0.46377662
0.3283384 0.013084667 -0.21165572 0.38052073 0.012518179 -0.663409 -0.38271216 -0.029239532
-0.5758744 0.10501732 0.11442777 0.062698625 0.25539777 -0.2181383 -0.19280091 0.48456272
0.2830742 -0.1578336 -0.33825064 -0.17865843 -0.11454455 -0.13390455 0.11007346 -0.03715151
-0.39688286 0.059762888 0.12350161 0.23180208 -0.42383865 -0.13985896 0.35467127 0.21696706
-0.5088482 -0.40398827 -0.35111532 0.52299577 0.57892966 -0.6964347 -0.6412712 -0.06934471
-0.44865027 -0.16710286 -0.12280135 0.18201979 -0.11752402 -0.1393011 0.26164314 0.7693458
0.20346929 0.047993496 -0.3549814 0.10551736 0.055713724 -0.5202177 -0.36641666 -0.3934443
-0.12940806 -0.10872581 -0.3228168 -0.15068814 -0.091465056 -0.15202084 -0.060214147 0.017861044
-0.022893954 -0.1027019 -0.57940346 0.018317614 0.059232987 -0.45332313 -0.6476946 0.2922127
-0.3917303 0.42681837 -0.19585781 -0.10253017 -0.0037766518 -0.34193268 -0.0069798897 0.7520627
-0.37626922 -0.41691858 0.02464262 -0.21894437 0.13252094 0.11159888 0.08102223 0.25835168
-0.09558339 -0.24993405 -0.1182121 0.25956315 -0.22639598 0.015789155 0.10863845 0.02316105
-0.23212886 0.27458322 0.0033541252 -0.14241739 -0.30089352 0.15565374 0.014851181 -0.15150751
0.09570143 -0.24925013 -0.00859734 -0.12382894 -0.067294106 -0.050298452 -0.11956946 -0.14406154
0.4281268 -0.14263816 -0.33373967 0.33588493 -0.110206604 -0.28055084 0.13149662 0.003095731
-0.21834382 0.2802088 -0.09914941 -0.25956485 0.046034735 -0.17595476 -0.49610925 0.49248174
-0.016603904 0.33723935 0.42715272 -0.119495526 -0.1423881 0.16490225 0.12079929 -0.199495
-0.099194966 0.12017365 -0.3995567 -0.115991004 0.16420664 -0.36562213 -0.03408941 -0.10347737
0.34272584 0.26167706 -0.045697667 -0.012417333 0.08237078 0.07116626 0.10009207 0.090113536
-0.24180232 -0.06255115 -0.3537052 -0.40702516 0.07252416 -0.4356632 0.037258636 0.18283448
0.2550395 0.5635677 0.06784881 0.07055427 -0.2758683 -0.0053882794 0.25026828 -0.10477501
-0.21776171 0.18758175 -0.36214352 0.04215714 0.23328069 -0.026781961 -0.23478644 0.23512639
0.57630277 0.12814045 -0.23751058 0.27436465 0.09525276 -0.26419196 -0.2333215 -0.18174511
-0.20055158 0.06797233 -0.33834487 -0.38338825 -0.07746066 0.10026451 -0.057402734 -0.03614815
0.15966217 -0.37629136 -0.22241792 0.20904116 0.37454912 -0.380688 -0.37309742 -0.20238878
-0.112044916 -0.041145243 0.34254095 0.28775984 -0.3542246 0.6047394 0.339596 0.15196922
0.26183298 0.1335448 0.08782766 -0.019050255 -0.06357368 0.18567981 0.25133908 -0.14156911
-0.25228408 0.32508597 -0.10968888 -0.21826586 0.16953819 -0.28130803 -0.07328389 -0.03956776
-0.61888486 -0.43956238 -0.38119498 -0.40723065 0.50830185 -0.42988545 -0.43574557 -0.34688935
0.029695703 0.043816756 -0.14342768 0.15243377 -0.012950712 -0.25443432 0.041457243 0.45316488

bias_ih_l0 f4 [48]
00000000: 3320 373d 64cd 9d3e f141 aa3b cb5a 1c3e
00000010: 7d4b 6a3e f093 b03d 67df dbbc a016 a53d
00000020: fc2d f33e 3f8a a43e 9d6b 963e 8703 d53e
00000030: 0656 dc3e 8562 c2be 1ca5 ad3e 73c4 1e3d
00000040: 9552 debe 5875 143f 0911 fd3e 1120 00be
00000050: 46ea e03d 56a1 a7be 429a c73c 681d fe3e
00000060: 2752 fdbe e613 023f 2127 d43e 2d5b a1be
00000070: 104c ecbe ec1b 723e d7c2 70bf c1f7 543e
00000080: f4ec d4bc f26a 213e 7516 26bd f6b3 24be
00000090: 2ca3 d9bc 5fdf 0e3d 4600 343e bedc 313e
000000a0: a8dc 5e3e 1e52 873d 4e01 92be eb02 41be
000000b0: 9e34 043e fbe7 d3be de4b abbe 0427 613d
0.044708442 0.30820763 0.005195849 0.1526901 0.22880359 0.08621967 -0.026839925 0.08060956
0.4749602 0.32136723 0.29378977 0.41604254 0.4303438 -0.3796579 0.3391503 0.038761567
-0.4342238 0.5799155 0.4942706 -0.12512232 0.10982184 -0.32740277 0.024365548 0.4963181
-0.4947674 0.5081161 0.41436103 -0.31514874 -0.4615178 0.23643464 -0.940473 0.20797636
-0.025991894 0.15763453 -0.04054876 -0.16084275 -0.026567064 0.034880992 0.1757823 0.17369363
0.21763861 0.066074595 -0.2851662 -0.1884877 0.12910697 -0.41387925 -0.3345632 0.05496885

bias_hh_l0 f4 [48]
00000000: ac95 353c 81b4 0fbc 64cc 3dbe 2b49 753e
00000010: 69f2 31bc 366d 253e 3bf8 0ebe 0440 a6be
00000020: 9e98 f13e 641a 283d 4410 a23e 4183 a33e
00000030: b468 ce3e 4ace b4bd 39a9 893e e09c 8dbe
00000040: c6d6 9ebe 0902 483f 8036 073f 8754 babe
00000050: 3421 8b3e 42f5 07bf 693b 9e3d 2147 073f
00000060: 1f70 c3be a3ae 5c3e 9a5c f93e 6963 35bf
00000070: bdb8 96be 2005 f73d fd6b 56bf 3d44 293e
00000080: d40a 90bc 0c24 1dbb 230b c1bd 1348 4dbe
00000090: 0668 b5be 221e 87bc 667c e73b 9774 cfbd
000000a0: 1db5 143e f060 9e3e 0e19 0cbe 76d2 2fbd
000000b0: 288e 373d a146 93bd 91dd 66be b4cb 873e
0.011083048 -0.008771063 -0.18535 0.23953693 -0.010861018 0.16154942 -0.1396188 -0.32470715
0.4718675 0.041040793 0.31653035 0.31936076 0.40314257 -0.08828409 0.2688692 -0.2765875
-0.31023234 0.78128105 0.52817535 -0.36392614 0.2717377 -0.5310861 0.07726175 0.5284291
-0.3817148 0.21550994 0.48703462 -0.7085481 -0.2943782 0.120615244 -0.8375853 0.16529937
-0.017583288 -0.0023977784 -0.09425952 -0.20047025 -0.35430926 -0.01649386 0.00706439 -0.101296596
0.14522214 0.30933332 -0.13681433 -0.04292532 0.044813305 -0.07191206 -0.22545458 0.265226

weight f4 [8, 16]
00000000: ac97 fd3e 7dad 2fbe 4ff6 06bf 1153 1c3f
00000010: a3ab a63e 3f2e c63e 98ea d2bd 732d 5b3e
00000020: bbfe b6be bafc 513e 2d95 4ebc 5ba8 ad3d
00000030: 90a4 20be b369 413c 0a55 0bbc ac75 2e3e
00000040: b197 823e 1c03 29bd bfb4 51bd c201 d7bc
00000050: 8bbb 343e af49 a63e 91ab abbe 2a71 14be
00000060: 63d4 a8be 7302 20bd f635 6abe 8ce4 893c
00000070: 44cb 88be e7b8 26bd 6880 7e3e 3618 ec3d
00000080: a454 a4be e025 a63d d0e2 8b3d 0d79 96bd
00000090: 384a 6b3e 4290 a1be 839b c93d 23cf 0fbe
000000a0: 222c 4f3e 2fd9 87bd b5ca eb3d c0d1 5c3d
000000b0: 22a9 973c ae6e f73d 5850 5ebe 42d3 a13d
000000c0: 4d8e d13c a6fb 013f 293a 413e 7c7c 613d
000000d0: 9b5d d6bd ce06 afbe 4fa8 283e 31f4 c5bb
000000e0: f4e5 5cbe b9ea 403e 9c1b 74be 68fa a5be
000000f0: 09c1 8b3e 212a cb3d aeb5 d1be 1972 2b3e
00000100: 0cf3 193f 0bd7 e2be 4474 30be 4c84 153e
00000110: aebe 3d3e 1e14 1bbe 077e ecbd 52cb d8bd
00000120: 329c fcbe 7884 07be 0296 37bd 326f c8bd
00000130: b50b b9be 47f2 3a3e faa5 e73d 4437 9f3e
00000140: f0a6 94be 2c0b cbbc 11d1 643e 7c28 75bd
00000150: 6f46 92be fa60 e73d 725f a93d 2c75 10be
00000160: 7c72 82be a550 7d3d d86d 023e a183 6d3e
00000170: 45f2 20bb 9b35 103e a01b 5c3e b0ad 2bbd
00000180: c1be a9bd c431 ee3e 5d15 2c3e 8de9 96be
00000190: 8692 bdbe 9631 56be ee78 f0bb 7ba6 2b3e
000001a0: 0ff1 fa3c e87a 5d3e a911 3fbe 1f89 d8be
000001b0: fb6e 203e 7daf c6be 3229 12be 161b ec3e
000001c0: 6284 7c3e 899c 09be d4b9 bfbd 4501 dd3d
000001d0: 2985 203d ae37 11bd 7373 5bbe 310d 1a3d
000001e0: dbc3 a3be 88a3 10be 0385 183d e9ad 343e
000001f0: c8bb 85be 1490 b3bc 2305 4b3e 9b3a c53e
0.4952978 -0.17156024 -0.5271959 0.6106425 0.32552823 0.38707158 -0.102986515 0.21404056
-0.3574122 0.20506564 -0.012608808 0.08479377 -0.15687776 0.011804986 -0.008504162 0.17037076
0.25506356 -0.04126273 -0.051197764 -0.026245955 0.17649667 0.3247809 -0.33529332 -0.14496294
-0.32974538 -0.039064836 -0.22872147 0.016832612 -0.2671758 -0.04070368 0.2485367 0.11528055
-0.32095826 0.08112693 0.068303704 -0.07347307 0.22977531 -0.31555372 0.09844115 -0.1404386
0.20231679 -0.06633221 0.11513273 0.05391097 0.018513266 0.12081657 -0.21710336 0.07901622
0.02558055 0.5077461 0.18869843 0.05505036 -0.104670726 -0.3418488 0.16470455 -0.006041073
-0.21572095 0.1883954 -0.23838657 -0.32417607 0.27295712 0.09920145 -0.40958923 0.16742744
0.60136485 -0.4430469 -0.17231852 0.14601249 0.1852977 -0.15144393 -0.11547475 -0.10585655
-0.49337918 -0.13234127 -0.044820793 -0.09786834 -0.36141744 0.18256484 0.113109544 0.31096852
-0.29033613 -0.0247856 0.22345378 -0.059853062 -0.28569362 0.11297794 0.08270158 -0.14107198
-0.2547797 0.061844487 0.12737215 0.23194744 -0.0024558466 0.14082949 0.21494913 -0.04191369
-0.082883365 0.46522343 0.16805024 -0.2947506 -0.3702585 -0.20917353 -0.0073386347 0.16762726
0.030632524 0.21628916 -0.1865908 -0.42292115 0.15667336 -0.38805762 -0.14273527 0.46114415
0.24659875 -0.1343862 -0.09361616 0.10791258 0.03918949 -0.03545349 -0.21430759 0.037610237
-0.31985363 -0.14124882 0.037236225 0.17644466 -0.26119828 -0.021919288 0.19826178 0.38521275

bias f4 [8]
00000000: d7ee 56be 587e 20be a522 16be 5aed 8e3e
00000010: 3fff 1d3e 1e9e af3d d17a 8c3e dc6c d73d
-0.20989548 -0.15673196 -0.14661653 0.2791546 0.154294 0.0857508 0.2743745 0.1051881

weight f4 [1, 8]
00000000: f0b6 a63e 7a1b 453e d11c 9c3e 5aad a4be
00000010: 52f0 993e 2cd4 b7bc 9cac e2be 9727 903e
0.32561445 0.19248763 0.30490735 -0.32163507 0.30066162 -0.022440039 -0.44272316 0.28155205
