MLP-Lite.tflite (tflite, 4380 bytes, 5 tensors)

arith.constant f4 [1, 8]
0.0409604 -0.19861846 0.121339165 -0.23606168 0.57055485 0.0022844737 0.070538625 -0.077175125
00000000: 18c6 273d a362 4bbe ab80 f83d 27ba 71be
00000010: e20f 123f 1cb7 153b 8e76 903d fe0d 9ebd

arith.constant1 f4 [8, 16]
-0.6317106 -0.3523386 -0.17074007 -0.22541282 -0.07770163 -0.0932239 -0.37982428 -0.0942826
-1.0311441 -0.69792014 -0.9035931 -0.44536263 -0.07311033 -0.48605052 -0.2288213 -0.6588521
-6.0943213 0.5374864 -3.8263052 -2.6619272 0.64892197 -7.3117137 0.18700291 1.2777228
0.7273516 -0.3367349 1.5350341 0.38630903 -10.088445 1.5276225 -1.9703875 0.8746282
0.6023858 -1.9662038 0.3898879 0.31869447 -0.88330096 0.40012863 -0.062575825 -2.9314916
-0.21995765 -0.5687557 0.7298566 -0.32857805 0.18654904 -0.33229023 0.37782368 -0.7583534
0.353858 -0.60720414 -1.9381127 -1.5368855 -0.70552504 -1.0926999 0.18744847 1.0150275
-0.6373884 -0.6940902 -0.49713817 -1.147421 -1.4300345 -1.4721645 -0.6543848 -0.19194841
-0.111536294 1.8521107 -5.0083275 0.57958364 -1.7781683 -1.2355996 -4.412296 0.51631385
-3.083065 1.2050946 -2.8686335 -2.8025274 -0.8121092 -3.801388 -1.6478846 -5.0836225
0.011382835 -0.08803067 -0.030940915 -0.45610195 -0.10426061 -0.12507644 -0.174261 -0.19227964
-0.08266597 -0.32843077 0.010467638 -0.40239078 -0.14439595 -0.14343438 -0.121269226 -0.23906444
0.38000345 -2.0030832 0.36852688 0.5583486 -3.5929134 0.5682072 -2.713378 -1.2322118
-2.099931 -3.3496783 2.0995746 -2.115108 0.094136 -6.201045 0.28379855 -1.9703916
-0.6561515 -0.050688487 -0.5900474 -1.478714 0.39023456 -0.964143 0.012533331 0.32018352
0.32758173 0.1233683 -1.0840857 0.30133796 -0.34975824 0.40637645 -0.45816433 0.26248193
00000000: c9b7 21bf ba65 b4be 7cd6 2ebe 9ed2 66be
00000010: 0822 9fbd 2cec bebd 5478 c2be 3c17 c1bd
00000020: 88fc 83bf e5aa 32bf e151 67bf 9206 e4be
00000030: deba 95bd 9ddb f8be 2250 6abe 88aa 28bf
00000040: ae04 c3c0 b598 093f 2fe2 74c0 045d 2ac0
00000050: c01f 263f 8ff9 e9c0 b17d 3f3e 6c8c a33f
00000060: b733 3a3f 8468 acbe ff7b c43f 4cca c53e
00000070: 456a 21c1 2289 c33f a835 fcbf a2e7 5f3f
00000080: f535 1a3f 91ac fbbf 639f c73e ec2b a33e
00000090: 0320 62bf a9dd cc3e c127 80bd 8f9d 3bc0
000000a0: 943c 61be f999 11bf e2d7 3a3f 623b a8be
000000b0: b606 3f3e f221 aabe 1b72 c13e 7323 42bf
000000c0: e02c b53e bb71 1bbf 1414 f8bf aab8 c4bf
000000d0: 4a9d 34bf 97dd 8bbf 7ef2 3f3e 6cec 813f
000000e0: e32b 23bf e5af 31bf e588 febe b1de 92bf
000000f0: 5f0b b7bf e36f bcbf c385 27bf 208e 44be
00000100: 246d e4bd f711 ed3f 3844 a0c0 985f 143f
00000110: 059b e3bf 2128 9ebf 8731 8dc0 252d 043f
00000120: f050 45c0 8a40 9a3f b197 37c0 9c5c 33c0
00000130: 63e6 4fbf f149 73c0 e2ed d2bf 09ad a2c0
00000140: 127f 3a3c 6d49 b4bd cd77 fdbc 3286 e9be
00000150: 9686 d5bd 0a14 00be 7a71 32be f4e4 44be
00000160: c74c a9bd 1428 a8be 7580 2b3c 2a06 cebe
00000170: 88dc 13be 76e0 12be 005c f8bd 4fcd 74be
00000180: d08f c23e 8432 00c0 8eaf bc3e efef 0e3f
00000190: 4bf2 65c0 0776 113f fca7 2dc0 1eb9 9dbf
000001a0: 4565 06c0 2161 56c0 6e5f 0640 ee5d 07c0
000001b0: 60ca c03d f66e c6c0 0b4e 913e cb35 fcbf
000001c0: 8bf9 27bf bb9e 4fbd 590d 17bf 8046 bdbf
000001d0: d3cc c73e 13d2 76bf 9a58 4d3c 18ef a33e
000001e0: cbb8 a73e 85a8 fc3d 52c3 8abf f848 9a3e
000001f0: 8313 b3be 9310 d03e 8494 eabe 0864 863e

arith.constant3 f4 [8]
-1.1860734 -7.139174 -1.4805871 -1.3392049 -4.3930364 -0.21379519 -6.9455504 5.452613
00000000: 41d1 97bf 1d74 e4c0 e183 bdbf 116b abbf
00000010: c193 8cc0 20ed 5abe f341 dec0 ce7b ae40

sequential_3_1/dense_7_1/BiasAdd/ReadVariableOp f4 [16]
-9.692439 -8.711915 -1.79195 -5.7441235 -5.125544 -3.3756964 -7.2706227 -9.478644
-0.58943635 -7.7927594 -11.611502 -7.3518972 -2.2266567 0.3522119 2.5006292 -6.5286818
00000000: 3b14 1bc1 0164 0bc1 9e5e e5bf dccf b7c0
00000010: 7504 a4c0 690b 58c0 f1a8 e8c0 87a8 17c1
00000020: 4de5 16bf 495e f9c0 b6c8 39c1 be42 ebc0
00000030: 8b81 0ec0 1e55 b43e 4f0a 2040 f6ea d0c0

sequential_3_1/dense_7_1/MatMul f4 [16, 26]
-0.14287555 -0.020554382 0.03945887 0.2123739 0.46678385 0.4553535 0.11021665 0.11970797
0.1787916 -0.1834967 -0.1399866 -0.11735514 -0.30495968 -0.045357667 0.21885459 -0.021142593
-0.37116385 -0.15613194 9.002851 -0.04455122 -0.12173891 -0.1600927 0.06352596 0.7558545
0.1329167 0.41009513 0.18343303 0.18012775 -1.034235 -3.8897588 -4.147397 -0.65497077
-0.12162996 -1.798491 -1.1011963 -0.7364742 2.487231 0.79423785 -2.3815753 -1.3166275
-0.4245761 -1.9080013 0.80000556 0.8878035 0.076560125 -0.15903157 1.1227977 0.6247061
0.36242467 -6.1989713 1.1933744 -0.9580144 0.27266693 0.08678934 0.19666368 0.027807025
1.4526485 2.620061 9.019741 1.6618129 -0.056004506 -0.05770436 0.68072957 -0.026238818
-0.037316065 0.030789658 -0.39882994 -0.5413422 -0.556355 0.6544264 -1.20527 -0.2991018
0.20729807 -0.0792316 0.74562263 3.6641278 -0.5752043 -0.3160946 0.6997348 -0.22341272
-0.923572 -0.1710512 4.607713 3.392792 3.17142 3.1655416 0.6643939 -1.0728823
1.6103718 1.3185011 -0.20923302 -0.096131794 0.30441034 1.419586 0.27156928 -1.0385897
1.3116564 0.30965322 -0.23344919 0.019872624 -0.09451756 4.0880733 -0.4184096 -0.40559167
0.77079815 -0.18325892 2.2743373 -1.0116906 -4.926094 -5.3272634 -2.69497 -1.5654137
0.40372968 -2.0783165 2.0291703 -0.9358365 -1.5254995 3.8367636 -1.0516396 0.57058626
-1.0658834 0.2305305 -0.7546237 -0.1282041 0.5857219 0.7403059 1.0655211 -4.93284
-0.9445327 0.7257616 1.0837848 0.14267871 -0.3436863 0.4269727 1.5053802 0.95602775
-0.11725856 0.70458394 -0.6473758 0.21489885 -10.819549 -0.76896894 0.17678386 -0.11495799
-0.25491253 -0.34195784 -0.15832356 0.39132124 0.6659956 0.4368164 0.79040116 0.32014865
-0.10788364 1.1048896 -0.20052859 -0.37081808 -2.0117106 -0.7013922 0.25033528 -2.296924
-1.8900983 0.440116 -0.021850808 -0.46182424 -1.4882623 -0.5810967 0.9739601 2.8070395
0.3402547 0.6613534 1.3659524 1.9106596 -1.4496807 0.24438173 1.1308259 -0.28657356
1.5022092 1.5769327 4.883626 -2.0227861 -3.9185169 -1.8860565 -0.9481005 1.1384476
-0.64105743 0.2340898 -5.625065 -4.6991615 -1.0031618 -3.8790174 -1.4493281 -0.29615343
-0.27976862 0.08279627 0.99458236 1.8379955 -1.1983721 -0.105352774 -1.637469 0.37891328
-3.1717527 -0.24953791 0.1837978 0.79802406 -0.58891875 -3.5336585 -0.2163866 0.121180475
-1.4235033 -0.9371209 -0.40282273 3.259513 -5.100392 -2.309525 -1.6710414 -1.7223593
0.94718283 -0.63875854 -0.46429458 -2.0590024 0.8253019 0.1901931 -0.51791066 0.3933453
1.6899418 -0.71673125 -0.62260467 -1.3249458 -0.13882671 0.05607793 1.834094 -3.1071017
1.2594317 -2.0442953 -1.1022061 1.3923761 -1.3157847 3.2095203 -2.4630473 -2.9447696
1.5087721 -0.45714465 -0.37630388 -0.35591274 2.6461258 -2.2211092 1.9927175 -1.6926038
0.36496025 2.592834 -0.69722253 -0.25393942 -0.43214434 0.007912023 0.32461593 -0.30840218
00000000: f84d 12be aa61 a8bc a09f 213d 8b78 593e
00000010: 4bfe ee3e 1824 e93e 44b9 e13d 7429 f53d
00000020: 2515 373e 8fe6 3bbe a658 0fbe e457 f0bd
00000030: ad23 9cbe f6c8 39bd 6b1b 603e 3b33 adbc
00000040: 3009 bebe 0de1 1fbe ad0b 1041 577b 36bd
00000050: 4052 f9bd 57ef 23be e619 823d ae7f 413f
00000060: 511b 083e fdf7 d13e ded5 3b3e 6973 383e
00000070: d061 84bf cff1 78c0 7ab7 84c0 2aac 27bf
00000080: 2119 f9bd f434 e6bf 00f4 8cbf 9389 3cbf
00000090: cb2e 1f40 2c53 4b3f bb6b 18c0 4087 a8bf
000000a0: 0a62 d9be 6339 f4bf 2acd 4c3f 1747 633f
000000b0: 8ecb 9c3d 2cd9 22be d6b7 8f3f bdec 1f3f
000000c0: ba8f b93e f95d c6c0 7ec0 983f 6f40 75bf
000000d0: 009b 8b3e 9cbe b13d 3462 493e 8fcb e33c
000000e0: 63f0 b93f 14af 2740 dc50 1041 49b6 d43f
000000f0: fb64 65bd 685b 6cbd 4b44 2e3f caf2 d6bc
00000100: bbd8 18bd 983a fc3c 7033 ccbe 6795 0abf
00000110: 486d 0ebf 7d88 273f 4a46 9abf df23 99be
00000120: f245 543e 2d44 a2bd 20e1 3e3f 1281 6a40
00000130: 9740 13bf 27d7 a1be d221 333f 4ec6 64be
00000140: 376f 6cbf 0c28 2fbe 6372 9340 8123 5940
00000150: 8cf8 4a40 3c98 4a40 b815 2a3f 3554 89bf
00000160: aa20 ce3f a5c4 a83f 2e41 56be bfe0 c4bd
00000170: acdb 9b3e feb4 b53f 210b 8b3e 82f0 84bf
00000180: 5be4 a73f de8a 9e3e 4e0d 6fbe eacb a23c
00000190: 6c92 c1bd 7fd1 8240 c839 d6be b6a9 cfbe
000001a0: 0753 453f 3aa8 3bbe be8e 1140 147f 81bf
000001b0: 90a2 9dc0 f178 aac0 637a 2cc0 7a5f c8bf
000001c0: a8b5 ce3e 2303 05c0 eddd 0140 fb92 6fbf
000001d0: 9143 c3bf 898d 7540 209c 86bf f111 123f
000001e0: de6e 88bf 3010 6c3e 052f 41bf f047 03be
000001f0: dff1 153f b084 3d3f ff62 883f d3d9 9dc0
00000200: e5cc 71bf 83cb 393f 76b9 8a3f 5e1a 123e
00000210: a7f7 afbe 2a9c da3e 4cb0 c03f 3cbe 743f
00000220: 4225 f0bd 9d5f 343f 6cba 25bf 720e 5c3e
00000230: df1c 2dc1 26db 44bf d406 353e 186f ebbd
00000240: e583 82be 1915 afbe 921f 22be 425b c83e
00000250: b07e 2a3f 66a6 df3e bb57 4a3f 86ea a33e
00000260: 19f2 dcbd 066d 8d3f 5e57 4dbe dedb bdbe
00000270: debf 00c0 708e 33bf f22b 803e ce00 13c0
00000280: beee f1bf e256 e13e 7700 b3bc 3a74 ecbe
00000290: 617f bebf c1c2 14bf 7355 793f 89a6 3340
000002a0: dd35 ae3e 754e 293f 87d7 ae3f 7e90 f43f
000002b0: 238f b9bf 343f 7a3e e7be 903f c5b9 92be
000002c0: 6448 c03f eed8 c93f aa46 9c40 5475 01c0
000002d0: fbc8 7ac0 4d6a f1bf b7b6 72bf a7b8 913f
000002e0: 571c 24bf 3db5 6f3e 8800 b4c0 885f 96c0
000002f0: 9b67 80bf d241 78c0 9583 b9bf 6ca1 97be
00000300: d53d 8fbe 1791 a93d f39c 7e3f 7043 eb3f
00000310: 4264 99bf 32c3 d7bd 9698 d1bf ec00 c23e
00000320: fffd 4ac0 de86 7fbe 7e35 3c3e 4e4b 4c3f
00000330: 61c3 16bf 7627 62c0 7394 5dbe 782d f83d
00000340: 5b35 b6bf 28e7 6fbf c83e cebe dc9b 5040
00000350: 6936 a3c0 42cf 13c0 afe4 d5bf 4576 dcbf
00000360: 937a 723f ae85 23bf 05b8 edbe b2c6 03c0
00000370: fc46 533f fbc1 423e cb95 04bf 8e64 c93e
00000380: 0350 d83f b37b 37bf 0563 1fbf d397 a9bf
00000390: 9728 0ebe f9b1 653d 98c3 ea3f c1da 46c0
000003a0: 0f35 a13f bcd5 02c0 1715 8dbf 6139 b23f
000003b0: a26b a8bf c868 4d40 91a2 1dc0 1b77 3cc0
000003c0: 721f c13f dd0e eabe e7aa c0be 323a b6be
000003d0: 205a 2940 a726 0ec0 5e11 ff3f 3ea7 d8bf
000003e0: 12dc ba3e fef0 2540 2d7d 32bf 5904 82be
000003f0: 0642 ddbe 6ea1 013c 0f34 a63e e4e6 9dbe
