mlp_model.pt (torch, 12409 bytes, 5 tensors)

weight f4 [16, 26]
00000000: 7d6b 0bbd 9261 543d 40c6 1abd c2ec 8b3d
00000010: aae0 d3be 90d9 0abe 68f1 f3bc 89b6 e2be
00000020: cd4a fa3b 4542 0dbd ef89 873e 46a6 04be
00000030: 8788 8f3e 5561 e43d f17d a53d 8815 1cbe
00000040: 1529 0c3e 6819 303d 52f5 ffbd 3d78 653e
00000050: 8c15 b6bc 7f6f 0e3e 1f29 0bbd 5309 babe
00000060: b7a9 b7bd 3149 0dbe 5e97 49be 72bf 8b3c
00000070: 76b4 5abb 18c2 f6bc 92f6 b03c 5445 d13d
00000080: e6b2 6c3f 2215 36bd c6f7 873b 6f81 8dbc
00000090: 6bfb 863e 340e 893d 6fff 93bd 2bbd 663d
000000a0: 45d9 56bd fbad 37bd 5347 13bd a98a 88bc
000000b0: 1721 5bbd 4152 9ebd c378 d3bb 1f13 1abd
000000c0: 0989 bb3c caed ab3d 013b 97bc f400 17bc
000000d0: a5de 89be b19d b53d 2f9f babd 2bb1 fbbd
000000e0: 20a3 01bf 2299 e6be caed 14bd 0eb5 a5be
000000f0: 6c87 e63c 7b63 66bd 0b42 7f3e a1c5 823e
00000100: a36c ad3d fe39 5ebe 7d85 2c3e fd86 2d3c
00000110: a99a bdbd f589 373e 05ab 3cbe 9f44 9abe
00000120: 5cca 643b e953 1dbe 4ffa a0be 5522 e7be
00000130: e190 f13d 59ea 5b3e ffe7 a33d 030e 01bd
00000140: ba56 98bd be29 e03b 3079 163e a0be 5d3d
00000150: 9ab0 023d 8aba a03a 9049 503b fac2 13be
00000160: 6fff 66bf 0035 83bd 89bc 04be 7437 20be
00000170: 0e8b cbbc 5424 5dbd d4b6 05be 267f 073e
00000180: 6838 39be 3abc 83bd 1301 a33c 29e7 03be
00000190: 9b4d 44bc eab1 9f3e ccfa bc3c 8572 e13a
000001a0: 4286 75be 7d30 ccbc 997b fd3d b6bd 423e
000001b0: 1992 d4be 5f44 6cbe 9ad8 d4bd 088a b2bd
000001c0: b6a5 66bc b07e 663d cf18 1c3d 06d7 b7bd
000001d0: 6e9d 52be b442 b93e 395c 45bd e0f2 c83e
000001e0: 7ccb c0be 2b4a 7dbe 886b 453b bc41 a9bd
000001f0: 923e ddbd e7d7 65bc 9383 2d3e b2ff 98be
00000200: 84a0 0bbe aab3 d83c 5b05 f83d ec71 793d
00000210: 3cb1 0ebe 2aa5 bdbd 432b a03e 03ed 223e
00000220: db92 b63d 8f57 3e3e e001 2ebd e807 843d
00000230: 5469 883e 3fd2 b03d 5ad8 a4bd d2eb 01be
00000240: c47a d2bd 41f4 4b3d 1cf8 a0bd 9fa8 a5bd
00000250: d80d b3be 784a 90bd eff1 09be d1e3 b6bc
00000260: c4e9 ca3d 220b cb3e f8cc abbd 385b afbc
00000270: dceb 06be 56f4 00be e9f9 b53d 81df 2e3c
00000280: cbba bcbe a4f7 b6be e6c5 d7bd 7774 64be
00000290: 4e32 dcbc e5a0 1cbe d4ac 583e 3d0b 4abe
000002a0: 7bd4 61be 44e1 41bd 6f90 80be 21e4 4bbe
000002b0: f830 153e 80e5 2dbd 822c 74bd 574a 553e
000002c0: 9ce7 463e 90a3 bb3b 2543 963e 8c40 c9be
000002d0: 0fca 21bd 7ff5 283e 38c5 1a3e 34b2 01be
000002e0: dd4a 77be 76e8 e4be 4478 0d3e 551b c73d
000002f0: 2a6e da3d 911a f13d 0dc0 9d3e bd4c 8cbd
00000300: c9a4 5cbe e6c0 d3bd bc39 14bd 5261 d7bd
00000310: 679f d2be a46c 643e 4486 083d fba2 1ebe
00000320: e827 023e 3973 3ebd 9b0d 493d bf2c 89bd
00000330: dfbd 99be b5a4 193e 6a55 04be 6530 8cbe
00000340: c8dc 493e 9b39 753d 9cad 09be 91f4 be3d
00000350: 12e0 ce3e b22d 4a3e 5f58 7bbe 7a3c 633e
00000360: 9800 90bd 08f9 dbbb 39ef 8e3e 3306 27bd
00000370: 0583 43be de24 863d fe49 aabd 919e 313e
00000380: 6363 913c bcb8 58bd c61d 3c3f adeb 083c
00000390: e21f 1fbe 6c12 93bb f36c c2bc 7e7d ba3e
000003a0: 5cb4 da3b 62a8 d0ba 07a6 36be 7b89 2f3e
000003b0: 42de d4bd 3e11 87bb c99b 39be 7fe1 0cbe
000003c0: 7f51 1ebe b1c1 97be b437 93bd 0e63 3d3e
000003d0: 8bee 2d3e aa43 a33d 97c0 e0bd 1a9c 973c
000003e0: 693c 7dbe cdfb 993d 0a34 c4bb 3c71 b6be
000003f0: 2421 a7bd ba96 3f3d 0245 bb3d ecb9 44be
-0.034038056 0.051850863 -0.037786722 0.06832267 -0.41382343 -0.13559556 -0.029778197 -0.44279888
0.0076383115 -0.034487028 0.26472422 -0.12954053 0.2803385 0.11151377 0.08080662 -0.15242589
0.13687547 0.04299298 -0.12497963 0.22409149 -0.022227071 0.1390972 -0.033974763 -0.3633524
-0.089679174 -0.13797452 -0.19686648 0.017059062 -0.0033371723 -0.030121848 0.021601949 0.102183014
0.9246048 -0.044453748 0.00414941 -0.017273633 0.26363692 0.06692162 -0.072264545 0.05633275
-0.052453298 -0.044843655 -0.035956692 -0.01666768 -0.053498354 -0.077305324 -0.006453605 -0.03761589
0.022892492 0.08394964 -0.018460752 -0.009216536 -0.26927677 0.08867968 -0.09112393 -0.122896515
-0.50639534 -0.45038706 -0.036359586 -0.32364696 0.028140746 -0.056247216 0.24927537 0.25541404
0.084679864 -0.2170181 0.16847797 0.010591266 -0.09258015 0.1792372 -0.18424614 -0.3013048
0.0034910655 -0.1536404 -0.3144097 -0.4514338 0.117952116 0.21476115 0.08003234 -0.031507503
-0.07438417 0.0068409136 0.14694667 0.054136872 0.0319067 0.0012262624 0.0031782128 -0.14429846
-0.9023351 -0.06406593 -0.12962545 -0.15646154 -0.02484658 -0.053989723 -0.13058025 0.13232097
-0.18087924 -0.06432386 0.019897973 -0.1288115 -0.011981393 0.31190425 0.023068808 0.0017200267
-0.23976997 -0.024925465 0.1237709 0.19017681 -0.41517714 -0.23072957 -0.10392876 -0.087177336
-0.0140775945 0.056273162 0.038109597 -0.08976559 -0.20567867 0.36183703 -0.048183654 0.392478
-0.37655246 -0.24735324 0.0030123908 -0.08264491 -0.1080295 -0.014028526 0.16944723 -0.2988258
-0.1363545 0.026452858 0.121103965 0.06089966 -0.13934797 -0.09260018 0.31283006 0.15910725
0.08914729 0.18588088 -0.042482257 0.064468205 0.2664286 0.08633851 -0.08049078 -0.12687615
-0.10277322 0.049793486 -0.07859823 -0.080888025 -0.349715 -0.07045454 -0.13471197 -0.022325428
0.099078685 0.3965693 -0.08388704 -0.021405801 -0.1317591 -0.12593207 0.08885557 0.010673405
-0.36861262 -0.3573581 -0.10535793 -0.22310053 -0.026879456 -0.15295751 0.21159679 -0.1973085
-0.22053711 -0.04733397 -0.25110194 -0.19911243 0.14569461 -0.042455196 -0.05961276 0.2082914
0.1942429 0.0057262853 0.29348102 -0.39307058 -0.03949934 0.164999 0.15114295 -0.12665635
-0.24149652 -0.44708604 0.13815409 0.0972201 0.106655434 0.11772645 0.30810586 -0.06850574
-0.21547236 -0.10339527 -0.036187872 -0.10516609 -0.4113724 0.22307068 0.03333117 -0.1549186
0.12710536 -0.046496604 0.04908524 -0.06697988 -0.30027673 0.15004237 -0.12923208 -0.27380672
0.19713128 0.05986939 -0.13445133 0.09323991 0.40405327 0.19743994 -0.2454543 0.22191039
-0.07031363 -0.0067130364 0.27916887 -0.040777396 -0.19092949 0.065500006 -0.08314894 0.17345645
0.017747587 -0.05291055 0.7348293 0.008356971 -0.15539506 -0.00448828 -0.023733592 0.36423868
0.0066743325 -0.0015919323 -0.17836772 0.17142288 -0.10393955 -0.0041219285 -0.18125834 -0.13757895
-0.15460776 -0.29639962 -0.07188359 0.18494818 0.16985528 0.0797189 -0.109742336 0.018507052
-0.24730076 0.0751873 -0.005987649 -0.35633266 -0.08160618 0.046774603 0.091440216 -0.19211549

bias f4 [16]
00000000: 3765 af3d addb 93be a567 583e e9c4 9dbd
00000010: 085f ed3e a08d 03bb c408 b03e b01c 94bc
00000020: 95a2 0ebe 1bef be3c 8acd edbd e621 0c3e
00000030: e92d 863d d19f be3d 3512 8dbd 62d3 c03d
0.08564227 -0.28878537 0.21133287 -0.07703573 0.46361566 -0.0020073429 0.34381688 -0.018080086
-0.13929208 0.023307374 -0.11611469 0.13684806 0.065517254 0.09307826 -0.06888238 0.09415318

weight f4 [8, 16]
00000000: 387c 513c a4bb 54bd 1ba8 63bd 0a52 8f3e
00000010: e787 62be cb32 7f3e cb4d 153e 1aee c73c
00000020: 60fa 5e3e 481f da3d b8e9 073e 8bcc 223d
00000030: 597f eb3e 2ac4 ba3e 3a91 113e bdc4 6d3c
00000040: 0d60 00bf 8c80 b5bd a43e 143c 8ae0 d73b
00000050: e5a9 a8be 5640 8c3e cd10 9ebe 6a19 833a
00000060: 39fc c03e 3f9c dd3d 7481 7a3e b4d9 6abe
00000070: 0dab 913e a59e 1fbd 8029 dc3d 9416 a1be
00000080: 5e21 ed3e 1290 9fbe d8a7 7e3e 950f d8bd
00000090: 002c 2f3e af8a 97be 93ad ca3e 6a66 3d3d
000000a0: 4fb7 85be 8b1b ca3d 3fda 92bc 213c 6a3e
000000b0: 1a68 96bb 0fae bdbb e4df 96be 716d dc3e
000000c0: beca 133e 9bb2 5a3e 2bba 06be afc3 973e
000000d0: e827 2ebe 557e eb3d af57 b7bd 4587 713d
000000e0: 0e1b 293e 432e 973e d215 5e3e bb6a 513e
000000f0: f144 673e 3585 413e 28e4 513e 0cca b33c
00000100: dc86 4d3c 7627 e2be c979 9e3e 1582 a53d
00000110: 80a3 9d3e 99b3 4b3e bd35 9d3e db24 a93e
00000120: a9a0 8d3d 631a ca3e fe2d ce3d 9c31 943e
00000130: 944c 52be 1688 42bd bed0 8fbb 7799 3bbd
00000140: f468 b33e aed5 eebe f16e ea3d 3611 0ebf
00000150: 5c55 c13e 3eb2 3bbd 1294 b23e 106f 903d
00000160: e18e bc3b f822 be3d 3595 d9be 0084 6f3c
00000170: 8717 38bc c049 57be 678f 85be 038f 983c
00000180: 3aee b93d 28e3 973e de24 94bd 198b c23e
00000190: dfe7 123e 81a3 883e 51e7 71bd 1bd9 993d
000001a0: 887f cd3e 3ee6 2cbd 6935 8d3e df3e f23d
000001b0: e45a f63e 905f af3e ae5a ba3e a7c5 0f3e
000001c0: 0d28 8c3e 8748 bcbe de68 c13e 834d ecbe
000001d0: 96f7 143e 3782 1ebf b684 ad3d 3f5d fcbc
000001e0: 8b77 f4be d620 983d 8302 14bf 5fd7 da3d
000001f0: a037 bdbe 40eb cdbe ab3d a6bd eef5 d93d
0.012785964 -0.05193676 -0.05558024 0.27992278 -0.22122155 0.2492172 0.14580457 0.024405528
0.21775198 0.10650498 0.1327275 0.03974585 0.45995596 0.36477786 0.14215556 0.014512238
-0.5014656 -0.08862409 0.009048138 0.0065880464 -0.3294212 0.27392834 -0.30872193 0.0010002081
0.3769243 0.10820817 0.24463445 -0.2293461 0.28450814 -0.038969655 0.10750103 -0.31462538
0.4631452 -0.31164604 0.24868715 -0.10549847 0.17106628 -0.29597995 0.39585552 0.046240248
-0.26116416 0.09868535 -0.017926333 0.228745 -0.0045900466 -0.0057885717 -0.2946769 0.43052247
0.14432809 0.21357195 -0.13156955 0.29641482 -0.1700741 0.11498705 -0.08952271 0.058966894
0.16514227 0.29527482 0.21688011 0.2045087 0.22584893 0.1889847 0.20497191 0.02194693
0.01254436 -0.4417073 0.3095229 0.08081452 0.30788803 0.1989273 0.30705062 0.3303593
0.06915409 0.39473256 0.10067366 0.289441 -0.20537025 -0.047493063 -0.0043888977 -0.045800652
0.3504101 -0.466474 0.11446942 -0.5549501 0.37760437 -0.045824282 0.34878594 0.070524335
0.005754337 0.092840135 -0.42496648 0.014618874 -0.011236078 -0.21024227 -0.2608597 0.01862288
0.09078641 0.29665494 -0.07233594 0.37996748 0.14346264 0.26687244 -0.05905849 0.07512113
0.4013636 -0.042211764 0.2757981 0.11828398 0.4811622 0.34252596 0.36397308 0.14040242
0.27374306 -0.36774084 0.3777532 -0.46152887 0.14547572 -0.6191744 0.08472578 -0.030806182
-0.47747454 0.07428138 -0.5781633 0.1068561 -0.369565 -0.40218544 -0.08117231 0.106426105

bias f4 [8]
00000000: 7fcc 1d3e 3bf7 1dbe 0afb 923d 9c41 403e
00000010: 5349 293e 6c7a f1be 7ebd 88bd ce39 f9bd
0.1541004 -0.15426342 0.07176788 0.18775028 0.16531877 -0.47163713 -0.06676768 -0.121692285

weight f4 [1, 8]
00000000: 78a0 813e ae59 6a3e 2146 02bf 27bf 2f3e
00000010: e38f e4be 7ddb 6ebe 5b3a a33e ccaa 1bbf
0.2531774 0.22885773 -0.5088826 0.17162763 -0.44641027 -0.23325916 0.3188046 -0.6080749
